model/module.pth (torch, 16793 bytes, 4 tensors)

linear1.weight f4 [256, 11]
-0.14755821 -0.36606988 0.22712256 -0.17047937 0.02430634 -0.33422345 -0.34080654 -0.04747713
0.34322053 -0.23985417 -0.44925836 -0.04788613 -0.22861557 0.013653142 -0.15945971 -0.30064145
0.1377453 -0.34475282 0.14080665 0.24172232 -0.18823166 -0.019875353 0.37724668 -0.20965555
0.43984294 0.011151552 0.15850505 -0.04487402 0.24043858 -0.14196847 0.050415568 0.2803054
0.19651017 0.5705843 0.056911882 -0.19368647 0.08656362 -0.2715775 -0.3320737 -0.1893659
-0.23346297 0.23983106 0.20157519 0.06993713 -0.12102149 0.33234507 0.021496663 0.22735351
-0.14619313 -0.03507418 0.10938912 -0.03771717 0.34209177 0.21823326 -0.13284275 0.22265807
0.38819456 -0.26055 -0.14995459 0.013334641 -0.2012619 -0.1609371 0.07036269 -0.26456076
0.089807324 0.033834636 0.56173444 -0.35416645 0.5835359 0.13287713 -0.17320609 -0.23570988
0.0053678136 -0.15307699 -0.048187498 0.12057769 0.015917145 -0.557066 0.2803739 0.16122049
0.18012147 -0.1159612 0.016131222 -0.069405675 0.28923434 0.20120987 -0.09037659 0.030646408
0.3823461 0.35949317 -0.22732961 0.13049354 0.2141541 0.056398597 0.12080264 0.33931065
0.06584048 -0.10992199 -0.012149805 0.2939328 0.025068793 -0.09498729 -0.3412255 -0.039781187
-0.01438726 -0.08702858 0.26438 -0.06793911 -0.0640823 -0.1411864 0.46645758 -0.18886048
0.0011971202 0.086308725 0.0034678464 0.37640283 0.34860155 0.19794057 0.24818493 -0.12324449
-0.11160868 -0.15397826 -0.027789103 -0.025368469 -0.29408783 0.37552437 -0.23360372 -0.24947703
-0.3155545 0.17958345 -0.32521185 -0.41911596 -0.12863816 0.5437403 -0.30450884 0.119029336
-0.23002708 0.13492218 -0.051743258 -0.19830744 0.011655829 -0.23039584 0.07547144 0.3888081
0.06928079 -0.3749603 -0.26855108 0.15050443 -0.24837151 -0.041779935 0.23189916 -0.06718749
0.34644833 -0.15625086 0.41977137 0.16818026 -0.4351099 0.08476987 -0.18339953 0.10699486
-0.29973802 -0.094728075 0.15982777 0.2808196 0.23642626 -0.15263735 0.23367369 0.1809255
-0.003215966 -0.32824802 0.28100762 -0.008984657 0.14753723 -0.3892662 -0.26462775 -0.12758905
-0.059450623 0.5647754 -0.27293575 0.061117712 0.2092291 -0.00087606796 0.054638397 0.024637979
0.010694655 0.21228495 -0.14992024 0.4713069 -0.15476307 0.3025077 -0.40133435 0.07243604
0.066725045 0.05183583 0.40949357 -0.10116822 -0.08936793 0.17125846 0.29159302 0.18165606
-0.2970657 0.34521392 -0.35189825 -0.043120563 0.015269786 -0.4505273 0.29424143 -0.03301838
-0.10562179 -0.21642357 -0.11931067 0.1883533 -0.271597 0.25919068 -0.0151383085 -0.20891312
0.13581154 0.25568372 -0.024967281 -0.2727126 0.41873303 -0.1711957 0.21395962 -0.06408565
0.26319072 0.025177097 0.18986748 -0.26939493 -0.39663592 -0.16956872 0.20992444 0.60648435
-0.19335179 -0.10786381 -0.0702724 0.10831811 -0.054687764 -0.23055536 -0.20051749 0.065511584
0.19914092 0.3780712 0.04795743 -0.3421994 -0.18408324 0.0001795528 0.220538 0.24892893
-0.21061777 -0.3712782 -0.034262467 0.004147703 -0.4389545 0.22564739 0.23932926 -0.3099776
00000000: 8019 17be 836d bbbe d192 683e 2592 2ebe
00000010: 171e c73c 561f abbe 327e aebe 6177 42bd
00000020: 9aba af3e 559c 75be 3105 e6be 3f24 44bd
00000030: 331a 6abe 6eb1 5f3c 6849 23be aded 99be
00000040: 1b0d 0d3e 7183 b0be 9e2f 103e 0e86 773e
00000050: cdbf 40be a3d1 a2bc 7a26 c13e f2af 56be
00000060: 1833 e13e 00b5 363c 264f 223e d2cd 37bd
00000070: 8835 763e 2f60 11be 8e80 4e3d 3084 8f3e
00000080: f639 493e d011 123f 6f1c 693d bf55 46be
00000090: 4448 b13d 350c 8bbe 9005 aabe 22e9 41be
000000a0: eb10 6fbe 4696 753e ba69 4e3e 333b 8f3d
000000b0: 1dda f7bd 2229 aa3e c519 b03c 5ccf 683e
000000c0: a7b3 15be f2a9 0fbd 6707 e03d 527d 1abd
000000d0: a726 af3e 8a78 5f3e ee07 08be 7a00 643e
000000e0: 70c1 c63e cf66 85be b28d 19be 8a79 5a3c
000000f0: 9917 4ebe b2cc 24be 501a 903d 8274 87be
00000100: e7ec b73d 3096 0a3d d4cd 0f3f 4e55 b5be
00000110: 9c62 153f f110 083e f05c 31be ee5d 71be
00000120: 7ce4 af3b 37c0 1cbe 4160 45bd 70f1 f63d
00000130: ac64 823c e19b 0ebf 2b8d 8f3e fc16 253e
00000140: c371 383e 117d edbd a025 843c 9024 8ebd
00000150: 8616 943e f609 4e3e 5d17 b9bd 2d0e fb3c
00000160: dec2 c33e 7d0f b83e 18c9 68be 19a0 053e
00000170: 364b 5b3e 3702 673d 6067 f73d 20ba ad3e
00000180: 60d7 863d c81e e1bd fa0f 47bc 5c7e 963e
00000190: 125d cd3c b288 c2bd 1cb5 aebe 99f1 22bd
000001a0: 8bb8 6bbc 0a3c b2bd d15c 873e a923 8bbd
000001b0: 953d 83bd 2b93 10be 87d3 ee3e a464 41be
000001c0: b0e8 9c3a a1c2 b03d cf44 633b dfb7 c03e
000001d0: e77b b23e efb0 4a3e 3124 7e3e 9b67 fcbd
000001e0: 1793 e4bd 7aac 1dbe f9a5 e3bc 89d1 cfbc
000001f0: ae92 96be bb44 c03e d035 6fbe e876 7fbe
00000200: 5c90 a1be b9e4 373e 2b82 a6be 5e96 d6be
00000210: b9b9 03be 9032 0b3f 95e8 9bbe a7c5 f33d
00000220: 388c 6bbe 0a29 0a3e bdf0 53bd 1b11 4bbe
00000230: 17f8 3e3c e3ec 6bbe c590 9a3d db11 c73e
00000240: 16e3 8d3d ccfa bfbe 877f 89be d51d 1a3e
00000250: 1a55 7ebe 7021 2bbd f976 6d3e 9899 89bd
00000260: ad61 b13e 3a00 20be 46ec d63e 7237 2c3e
00000270: bac6 debe d39b ad3d 16cd 3bbe 1f20 db3d
00000280: 4377 99be cb00 c2bd e4a9 233e 96c7 8f3e
00000290: ba19 723e f74c 1cbe 2848 6f3e 8944 393e
000002a0: f5c2 52bb 2010 a8be 3be0 8f3e 6234 13bc
000002b0: 0014 173e e64d c7be 4a7d 87be b4a6 02be
000002c0: 7f82 73bd 1f95 103f 3cbe 8bbe 9156 7a3d
000002d0: 2740 563e eda7 65ba 83cc 5f3d 96d5 c93c
000002e0: a238 2f3c 3a61 593e b184 19be 234f f13e
000002f0: 367a 1ebe 4ae2 9a3e b27b cdbe 5959 943d
00000300: 24a7 883d cf51 543d 24a9 d13e 4931 cfbd
00000310: 8906 b7bd 615e 2f3e ae4b 953e 0c04 3a3e
00000320: ff18 98be e1bf b03e 022c b4be 309f 30bd
00000330: 202e 7a3c 84ab e6be d0a6 963e 483e 07bd
00000340: 3d50 d8bd 249e 5dbe 2759 f4bd b0df 403e
00000350: c30e 8bbe a4b4 843e ab06 78bc 52ed 55be
00000360: 2e12 0b3e fae8 823e 2f88 ccbc fca0 8bbe
00000370: 2d64 d63e ed4d 2fbe 3b18 5b3e 563f 83bd
00000380: efc0 863e 3340 ce3c 9f6c 423e 22ee 89be
00000390: dd13 cbbe 6ca3 2dbe 6ff6 563e 8f42 1b3f
000003a0: 03fe 45be b4e7 dcbd faea 8fbd e3d5 dd3d
000003b0: 4700 60bd b416 6cbe 7554 4dbe f02a 863d
000003c0: 99eb 4b3e 8c92 c13e 036f 443d c234 afbe
000003d0: 5180 3cbe 5646 3c39 b7d4 613e 3ae7 7e3e
000003e0: 2fac 57be 2d18 bebe cd56 0cbd 74e9 873b
000003f0: a5be e0be 1c10 673e bb12 753e 62b5 9ebe

linear1.bias f4 [256]
0.17930643 0.020767944 -0.25436863 0.11034769 -0.20599261 0.12338793 0.04081251 0.205552
0.09786453 0.084900655 -0.2662327 -0.011735576 0.07036315 -0.123598315 0.044248246 -0.04643077
-0.11767951 8.7108114e-05 0.043089937 -0.22029066 0.030206932 -0.17172953 0.16849773 0.19061802
0.106227696 0.3024543 -0.06000614 -0.14742596 -0.24602781 0.0035523577 -0.18477991 0.29088235
-0.32660502 -0.011761552 -0.08163284 0.12095253 -0.014872978 0.11164127 0.050984923 0.10474865
-0.13440888 -0.038233478 -0.2857721 -0.024223892 -0.070475005 0.20084928 -0.2624002 -0.3078292
0.011465417 -0.050727785 -0.15941024 0.27199796 -0.04147859 -0.13639545 0.01681984 0.3225314
0.04221621 -0.07301241 0.0931474 -0.012977817 0.11625129 -0.12046984 0.13972278 -0.10876277
-0.0014347772 0.150313 0.25316328 -0.077906124 -0.19954422 -0.0049348613 0.18557714 -0.14802584
-0.041923728 0.12698904 0.20069584 -0.00087461504 0.24128427 -0.045324583 -0.066160105 0.14288089
-0.09181276 -0.3463322 -0.32868084 0.08117375 -0.35195217 0.27223113 -0.30076596 -0.040178627
0.19360082 -0.071119234 0.10549964 0.27521428 -0.08491708 -0.040157985 -0.2896228 0.05953367
-0.27647153 0.15300134 -0.2628439 -0.41432458 -0.02775754 -0.12819909 -0.12863928 0.060834542
0.20738041 -0.19806491 -0.03855889 0.31722134 0.08681088 0.14057226 0.006008855 0.024412254
-0.35394806 -0.24493113 -0.22679766 0.09600699 -0.035755012 -0.0684816 0.14717725 0.16722219
0.20067 0.038592204 -0.12552314 0.18835354 -0.054860935 0.10134146 -0.1091622 0.12603961
0.17202006 0.14721596 0.31793502 -0.29559982 -0.037230983 -0.12924552 0.11292666 -0.0988401
0.1001403 0.18923923 0.15738428 -0.22786741 0.14242467 0.062254854 0.3102781 0.009529326
-0.2546582 0.029091114 0.02188781 -0.14711662 0.101427734 0.116258316 -0.049657684 0.12568435
0.004588332 -0.010379745 0.14608325 0.1950282 0.2726926 0.11194612 0.17306769 -0.3403816
-0.22563462 0.054811817 0.071081094 0.19335198 0.16471247 -0.23238762 0.16065249 -0.033344008
0.23002227 -0.22984488 0.06358689 0.065010905 -0.34300843 0.03704663 0.39649066 -0.33796325
0.2654218 0.09325808 0.17040424 0.12918979 0.026520535 0.121719554 -0.1846489 -0.0037922878
0.13123134 -0.051941633 -0.27585736 0.117032364 -0.0063225427 0.19338869 0.31777537 -0.17491001
-0.0761834 -0.06257616 -0.2453125 0.073929556 -0.046356782 -0.089591876 -0.06705681 -0.032473605
0.18936028 -0.030533573 0.14819458 -0.14153819 -0.014292801 0.05889159 -0.035195712 -0.020456782
0.05969204 0.0010833518 -0.19683285 -0.024754452 0.07471513 0.21607836 -0.021571975 0.057723854
-0.053751737 0.283421 0.4154981 -0.07804701 0.18719089 0.15381174 0.23368268 0.11664524
0.09080443 0.0034646492 0.17340533 0.13638036 0.27723217 -0.026830778 -0.019151432 0.13431568
-0.28663257 -0.10994968 0.00906694 0.24254748 0.343632 0.03409711 -0.25110954 0.36562002
-0.109783694 -0.09415912 0.026957119 -0.10069128 -0.07908364 0.026159715 -0.043060552 -0.11011003
-0.14538904 -0.28755808 0.099726215 -0.09279877 -0.032660354 -0.102233134 0.25780922 -0.1781399
00000000: 1b9c 373e 8921 aa3c 9b3c 82be f8fd e13d
00000010: baef 52be d0b2 fc3d 052b 273d 397c 523e
00000020: 336d c83d 65e0 ad3d a74f 88be 9346 40bc
00000030: 8e1a 903d 1d21 fdbd a63d 353d 312e 3ebd
00000040: f401 f1bd d0ad b638 137f 303d e093 61be
00000050: 8774 f73c ded9 2fbe ab8a 2c3e 5f31 433e
00000060: e88d d93d 4adb 9a3e 00c9 75bd d5f6 16be
00000070: b7ee 7bbe acce 683b f236 3dbe 88ee 943e
00000080: c638 a7be 86b3 40bc 1e2f a7bd f6b5 f73d
00000090: cbad 73bc 2ea4 e43d 91d5 503d 7686 d63d
000000a0: 7ba2 09be b59a 1cbd b850 92be 2f71 c6bc
000000b0: 3355 90bd 6fab 4d3e 5259 86be ca9b 9dbe
000000c0: 72d9 3b3c f0c7 4fbd 703c 23be 5143 8b3e
000000d0: 74e5 29bd 40ab 0bbe c3c9 893c d622 a53e
000000e0: e8ea 2c3d 8887 95bd 10c4 be3d e9a0 54bc
000000f0: 2815 ee3d e4b8 f6bd 7d13 0f3e 04bf debd
00000100: 220f bcba a7eb 193e 9e9e 813e 3f8d 9fbd
00000110: 5255 4cbe 9eb4 a1bb ef07 3e3e 1694 17be
00000120: 37b8 2bbd 6a09 023e 3683 4d3e 6c46 65ba
00000130: 3913 773e 45a6 39bd f37e 87bd 5e4f 123e
00000140: 5408 bcbd 7452 b1be db48 a8be 6c3e a63d
00000150: 1333 b4be e161 8b3e fffd 99be 5892 24bd
00000160: 4b3f 463e f6a6 91bd 3210 d83d e3e8 8c3e
00000170: 02e9 adbd b37c 24bd 7149 94be 94d9 733d
00000180: ad8d 8dbe 62ac 1c3e 7a93 86be 5a22 d4be
00000190: c863 e3bc 9f46 03be 04ba 03be a42d 793d
000001a0: 885b 543e 87d1 4abe edef 1dbd d66a a23e
000001b0: e7c9 b13d 2df2 0f3e eee5 c43b 35fc c73c
000001c0: ae38 b5be 3acf 7abe a53d 68be 509f c43d
000001d0: d973 12bd 1540 8cbd a2b5 163e 4b3c 2b3e
000001e0: 707c 4d3e dc12 1e3d 2389 00be c0df 403e
000001f0: dcb5 60bd 1d8c cf3d 6e90 dfbd 8710 013e
00000200: 0726 303e c8bf 163e 61c8 a23e dc58 97be
00000210: 847f 18bd f058 04be 1846 e73d ae6c cabd
00000220: 5c16 cd3d eec7 413e 5829 213e 1356 69be
00000230: c6d7 113e f2fe 7e3d c5dc 9e3e e420 1c3c
00000240: 8f62 82be 7d50 ee3c 114e b33c bda5 16be
00000250: 58b9 cf3d d718 ee3d db65 4bbd 66b3 003e
00000260: b859 963b ce0f 2abc d996 153e 79b5 473e
00000270: 5d9e 8b3e 0244 e53d a838 313e 7f46 aebe
00000280: c30c 67be 5b82 603d f792 913d 10fe 453e
00000290: 63aa 283e 05f7 6dbe 1682 243e ba93 08bd
000002a0: f58a 6b3e 755c 6bbe d839 823d 7024 853d
000002b0: cd9e afbe 35be 173d d300 cb3e 8509 adbe
000002c0: 5ee5 873e 18fe be3d 737e 2e3e 544a 043e
000002d0: 9841 d93c 1a48 f93d 9a14 3dbe 0888 78bb
000002e0: 8261 063e c0c0 54bd 2d3d 8dbe aaae ef3d
000002f0: 552d cfbb af07 463e 74b3 a23e 9c1b 33be
00000300: 0b06 9cbd ee27 80bd 3333 7bbe 6168 973d
00000310: 9ce0 3dbd f27b b7bd 1555 89bd 0b03 05bd
00000320: a9e7 413e 8b21 fabc 52c0 173e 63ef 10be
00000330: 5a2c 6abc 4f38 713d 6129 10bd fb94 a7bc
00000340: a47f 743d 41ff 8d3a 8d8e 49be d9c9 cabc
00000350: 3f04 993d a543 5d3e b6b7 b0bc d96f 6c3d
00000360: c82a 5cbd 8f1c 913e 2bbc d43e 1cd7 9fbd
00000370: f8ae 3f3e d380 1d3e 834a 6f3e b3e3 ee3d
00000380: acf7 b93d 2b0f 633b 2b91 313e 4ba7 0b3e
00000390: 60f1 8d3e 38cc dbbc 77e3 9cbc 0d8a 093e
000003a0: 81c1 92be 4c2d e1bd 818d 143c 5e5e 783e
000003b0: 89f0 af3e 69a9 0b3d 6e91 80be 8c32 bb3e
000003c0: 46d6 e0bd 7fd6 c0bd 2dd5 dc3c 3b37 cebd
000003d0: 9af6 a1bd e64c d63c 4360 30bd 5e81 e1bd
000003e0: dde0 14be d03a 93be 423d cc3d 480d bebd
000003f0: ddc6 05bd 9b5f d1bd 92ff 833e 4e6a 36be

linear2.weight f4 [3, 256]
0.22570628 -0.15111603 -0.08160114 -0.26101333 -0.22531977 -0.04960082 -0.24978335 0.028999735
-0.06176613 -0.20285223 -0.3303674 0.2396342 -0.046580147 -0.35752222 -0.171072 -0.103501715
-0.025866084 -0.29239178 -0.21368511 0.13510637 -0.0536166 -0.29407325 0.2405844 0.053961173
-0.111705616 0.11409758 -0.24544488 -0.092024565 -0.27402207 -0.36946028 0.17171218 0.043181412
-0.016947903 -0.009953365 0.22669531 -0.13264976 -0.28967002 -0.1567123 -0.25411016 -0.13978998
-0.2862072 -0.40395382 0.014216706 -0.041573253 0.10191736 -0.0583155 0.07478959 0.00044457603
0.048725437 0.17426886 0.31840232 0.010395645 -0.30830768 -0.3095597 -0.1611189 0.18639253
0.16784112 -0.30532303 -0.106039226 0.19284278 0.09976916 -0.009556506 -0.12502752 -0.15787795
0.10141304 -0.1544558 0.036899913 -0.17721716 -0.2808728 -0.009069094 -0.004402574 -0.09150667
-0.07943302 -0.11331378 0.1495428 -0.17589638 0.14486618 0.00023085524 0.10696325 -0.078030504
-0.35981193 -0.08376657 0.014842215 -0.07054131 -0.06713829 -0.09923591 -0.2721663 0.15701757
-0.071071 -0.02182771 -0.08820718 0.19042847 0.2207897 -0.42407048 -0.04758679 -0.09108671
0.18680885 -0.030848602 -0.0051643956 0.0036462778 -0.026464533 -0.049512252 -0.05116444 0.08097943
0.17885208 0.030939152 -0.30129912 0.1670809 -0.019503184 -0.03791128 0.1758807 0.17595783
-0.0052807736 -0.22837387 -0.06794453 -0.15415235 -0.16964395 -0.1380392 0.05278881 -0.09413214
-0.0019261306 0.07794315 0.15901914 0.08274004 -0.038549434 0.12717867 -0.47949553 -0.026909983
0.011741919 0.24793863 0.052557252 -0.034514025 0.051391136 -0.21902317 -0.036230322 0.1294184
-0.18588948 0.105236076 -0.050467934 -0.09171443 0.000699669 -0.18683545 0.08996839 -0.001079401
-0.059612595 -0.11979792 -0.22312559 -0.017701274 -0.048031513 -0.003010632 -0.090678185 0.06305746
0.08435398 -0.018529935 0.2113438 -0.07507362 0.03447801 -0.18674651 0.20312932 0.08843853
0.14825574 -0.009238751 0.14985648 -0.12028414 0.11318055 -0.026921123 0.21682511 -0.19250019
-0.16739038 0.010873331 -0.14941406 -0.30163944 0.041955676 -0.01117983 0.27697265 0.058720633
0.14033228 -0.09195733 -0.067094885 -0.141261 -0.04259843 -0.12251978 -0.02250674 -0.23193523
-0.09364287 0.104110576 -0.32399085 0.019597134 0.20655063 -0.10375135 0.28659403 -0.3065827
-0.17324272 0.07162534 -0.24048524 -0.1518022 -0.12359135 -0.33633447 -0.27670887 -0.16610453
0.3137491 -0.34596184 0.1725401 -0.2140138 -0.22970821 -0.08610485 0.09551384 -0.14861438
0.054903194 -0.043688804 -0.01336453 -0.12589236 0.02982909 -0.18819375 -0.27111712 0.15256423
0.16764693 0.08922331 0.21247016 -0.175948 -0.101965316 0.046262365 -0.012002803 0.2827442
-0.13747978 -0.0143912025 0.054217003 0.10802546 0.23302867 0.17656536 -0.052724566 -0.024768164
-0.064546295 0.13573162 0.0009732704 0.037689943 0.03533207 0.12759088 0.059797995 0.15029418
-0.27303413 -0.008482501 -0.021077933 -0.026956903 -0.027503433 -0.13144289 -0.155857 -0.13154337
-0.16065663 0.03844793 -0.1301597 0.031940665 -0.03992494 0.0010897283 0.02653445 -0.30397153
00000000: 8c1f 673e 29be 1abe 801e a7bd 8aa3 85be
00000010: 3aba 66be 3b2a 4bbd 35c7 7fbe da90 ed3c
00000020: 7bfe 7cbd 7fb8 4fbe ea25 a9be ab62 753e
00000030: d3ca 3ebd 270d b7be 802d 2fbe b5f8 d3bd
00000040: 1ce5 d3bc 60b4 95be 45d0 5abe 5359 0a3e
00000050: 149d 5bbd c590 96be c25b 763e 6406 5d3d
00000060: eac5 e4bd feab e93d e755 7bbe 6077 bcbd
00000070: 9f4c 8cbe e629 bdbe 51d5 2f3e fede 303d
00000080: 54d6 8abc 7013 23bc d122 683e 57d5 07be
00000090: a14f 94be 3079 20be ba1a 82be 1b25 0fbe
000000a0: c089 92be 09d3 cebe 30ed 683c b748 2abd
000000b0: 0dba d03d 3cdc 6ebd 492b 993d fc15 e939
000000c0: 5394 473d 8973 323e a105 a33e 7f52 2a3c
000000d0: 81da 9dbe 9c7e 9ebe 5afc 24be afdd 3e3e
000000e0: 8bde 2b3e 4d53 9cbe 182b d9bd 9478 453e
000000f0: c653 cc3d e492 1cbc 3707 00be c2aa 21be
00000100: a4b1 cf3d a929 1ebe 5d24 173d 6a78 35be
00000110: 8fce 8fbe 8a96 14bc 7843 90bb d967 bbbd
00000120: c7ad a2bd 0e11 e8bd bf21 193e 2e1e 34be
00000130: cd57 143e bb11 7239 8c0f db3d 75ce 9fbd
00000140: 4539 b8be cf8d abbd c32c 733c f677 90bd
00000150: cd7f 89bd 323c cbbd 6259 8bbe 37c9 203e
00000160: ac8d 91bd 07d0 b2bc f7a5 b4bd aeff 423e
00000170: b216 623e c41f d9be 5eea 42bd ab8b babd
00000180: d24a 3f3e 35b6 fcbc 173a a9bb 64f6 6e3b
00000190: 26cc d8bc 5ccd 4abd ce91 51bd 8bd8 a53d
000001a0: 0025 373e 1b74 fd3c e143 9abe 4117 2b3e
000001b0: 24c5 9fbc dc48 1bbd 121a 343e 4a2e 343e
000001c0: 570a adbb d7da 69be 8026 8bbd 1dda 1dbe
000001d0: 25b7 2dbe 265a 0dbe 1439 583d 5ac8 c0bd
000001e0: 3876 fcba a9a0 9f3d ead5 223e 9c73 a93d
000001f0: 03e6 1dbd 203b 023e 7080 f5be 5372 dcbc
00000200: 2e61 403c a0e3 7d3e 4646 573d 945e 0dbd
00000210: 837f 523d 9c47 60be 3f66 14bd 4286 043e
00000220: d059 3ebe 0386 d73d 77b7 4ebd c6d4 bbbd
00000230: fe69 373a cb51 3fbe 5941 b83d b07a 8dba
00000240: 562c 74bd 9d58 f5bd 097b 64be 4302 91bc
00000250: b1bc 44bd 064e 45bb 7cb5 b9bd 4524 813d
00000260: c8c1 ac3d 17cc 97bc 826a 583e 33c0 99bd
00000270: d038 0d3d 7a3a 3fbe 2201 503e 431f b53d
00000280: 5ad0 173e 215e 17bc fa73 193e 8857 f6bd
00000290: 34cb e73d b089 dcbc 6707 5e3e c51e 45be
000002a0: 6268 2bbe 0e26 323c 0000 19be 7c70 9abe
000002b0: b7d9 2b3d 9b2b 37bc 5ccf 8d3e 0c85 703d
000002c0: 44b3 0f3e 2054 bcbd 0b69 89bd b9a6 10be
000002d0: b17b 2ebd a7eb fabd 0e60 b8bc 6e80 6dbe
000002e0: d5c7 bfbd ed37 d53d 21e2 a5be 2b8a a03c
000002f0: 0282 533e 967b d4bd 74bc 923e 68f8 9cbe
00000300: 8a66 31be 4eb0 923d c341 76be 0972 1bbe
00000310: 761d fdbd 0834 acbe c9ac 8dbe 4e17 2abe
00000320: b9a3 a03e e921 b1be 5aae 303e 6f26 5bbe
00000330: a138 6bbe bd57 b0bd c39c c33d 5e2e 18be
00000340: 2ce2 603d 08f3 32bd e7f6 5abc ede9 00be
00000350: 235c f43c ddb5 40be ddcf 8abe cc39 1c3e
00000360: a3ab 2b3e b6ba b63d c791 593e b62b 34be
00000370: 31d3 d0bd 9b7d 3d3d 68a7 44bc d9c3 903e
00000380: 80c7 0cbe 14c9 6bbc a612 5e3d 743c dd3d
00000390: 119f 6e3e 8dcd 343e b7f5 57bd 9be6 cabc
000003a0: d930 84bd 3bfd 0a3e 1223 7f3a c560 1a3d
000003b0: 5cb8 103d 2fa7 023e beee 743d b8e6 193e
000003c0: 21cb 8bbe 30fa 0abc a1ab acbc b9d4 dcbc
000003d0: e14e e1bc f798 06be fa98 1fbe 4eb3 06be
000003e0: 2c83 24be 947b 1d3d 9648 05be 37d4 023d
000003f0: 5588 23bd 37d5 8e3a c65e d93c 28a2 9bbe

linear2.bias f4 [3]
0.054010276 -0.10702158 -0.0689304
00000000: e139 5d3d 212e dbbd 622b 8dbd
