model/module.pth (torch, 16793 bytes, 4 tensors)

linear1.weight f4 [256, 11]
000000 1d 99 82 bd e2 5b ff 3e a2 87 37 3f 15 63 fb bd
       -0.0637686 0.4987479 0.71691334 -0.12274758
000010 30 2f c5 be c1 ad db bd 96 e5 94 be fb f6 87 be
       -0.38512564 -0.107265 -0.2908141 -0.2655562
000020 b1 d2 8e 3e 32 8c d8 bd 43 89 92 3e 66 ce 3b bf
       0.2789512 -0.10573615 0.28620347 -0.73361814
000030 ec 4f 19 3e 93 3f 20 3f 2b f9 d1 be d2 b6 c7 3d
       0.14971894 0.62597007 -0.41010413 0.09751667
000040 b9 30 19 3e 08 61 0f bf 77 75 54 be 13 18 91 3e
       0.14959992 -0.5600743 -0.20747934 0.2833868
000050 4e 1a 1e 3e ad f7 da be 8a ab 27 be b9 90 e3 bd
       0.15439722 -0.42767087 -0.1637403 -0.11111588
000060 2e 58 58 3c fa 9f ce 3e a0 57 8d be 92 de a0 3d
       0.013204617 0.40356427 -0.27605915 0.07854952
000070 3d f4 b0 be bf 96 87 be 83 92 2d bf 28 9e 3c be
       -0.3456134 -0.26482198 -0.67801684 -0.18419707
000080 1b be fa 3e 77 b6 14 3f aa 94 c0 bd 01 02 89 be
       0.48973164 0.5809092 -0.094033554 -0.2675934
000090 a5 78 df 3e 93 3c 1a bd 1f 5e 28 be fc be 54 3e
       0.43646732 -0.037655424 -0.16442154 0.2077598
0000a0 1d d0 a6 be eb 16 ae 3d b0 c6 9d 3e 40 17 f1 bd
       -0.32580653 0.08500465 0.3081565 -0.11772013
0000b0 03 bc e7 3e 52 b2 10 bf 42 9b fe 3b 5c 56 12 bd
       0.4526063 -0.56522095 0.007769973 -0.03572689
0000c0 e9 b5 52 3e c2 8c b3 3e 42 61 36 be 51 9a 6d be
       0.20577206 0.35068327 -0.17810538 -0.23203398
0000d0 11 22 bf bd 73 c3 e2 bd 6a e0 6b 3e 01 c9 ba be
       -0.093326695 -0.11072435 0.23034826 -0.3648148
0000e0 71 cb 02 bd f2 18 5a 3e c8 c8 35 bf 85 2f 27 be
       -0.031932298 0.21298578 -0.7100949 -0.16326721
0000f0 57 e7 c4 3e f6 63 dd 3e 9e 3a f0 be f4 fb 1d bf
       0.38457748 0.43240327 -0.4691972 -0.61712575
000100 87 17 44 3e 74 15 05 3f ad dd 3e be 8a b6 21 3e
       0.191496 0.5198586 -0.1863925 0.1579229
000110 b1 c3 d2 be ab 55 12 3d e5 8b 95 be 6c 3d e3 be
       -0.41164926 0.03572623 -0.29208294 -0.443828
000120 df e8 b6 3e 92 f0 44 be f8 65 3c 3e 38 da 50 3e
       0.35724542 -0.19232395 0.18398273 0.20395744
000130 67 6d b5 be 35 99 76 bd 61 9f dd 3c e9 4b 67 3d
       -0.3543503 -0.060204703 0.027053537 0.056468878
000140 24 c0 ae 3e ba 30 32 3f d2 63 ec be e7 f7 d5 be
       0.34130967 0.696056 -0.46169907 -0.41790697
000150 d6 6e 6c be 0e fb 1b bf 94 bb 03 3f f3 c0 e4 3e
       -0.23089156 -0.60929954 0.51458097 0.4467846
000160 ea 94 0b 3f 1c b3 57 3d a3 30 0c 3e 3c 80 39 3c
       0.545241 0.052661046 0.13690428 0.011322077
000170 c2 a7 52 be 31 4d 0c 3c 06 4c 3f bf a7 91 2f be
       -0.20571807 0.008563326 -0.7472538 -0.17145406
000180 c2 95 26 3e c4 2b 2c 3e 36 15 1e 3f 66 f3 c2 3c
       0.16268066 0.1681357 0.61751115 0.023797702
000190 33 3f 54 bf d8 79 fd 3d 1f 77 ae bd 7c 72 0e bf
       -0.82908934 0.123767555 -0.08518814 -0.5564344
0001a0 48 f0 dc bd 19 fc 87 be ca 0f d0 be fd 01 47 3e
       -0.107880175 -0.26559523 -0.40637046 0.19434352
0001b0 37 a7 3a 3e ed 78 9b bb 69 31 fa bd ac 18 6c 3e
       0.1822785 -0.00474464 -0.122164555 0.23056287
0001c0 d1 f8 29 be 10 2e e6 bd 16 e5 07 3f 14 94 4b 3e
       -0.16598822 -0.112392545 0.5308393 0.19880706
0001d0 a7 1e 03 3f 9d 71 58 bf 0a 70 37 bd 90 5e 6f 3e
       0.51218647 -0.8454836 -0.044784583 0.23375916
0001e0 52 f6 6a be ba d7 14 3f c8 10 e9 3d dd 63 37 bf
       -0.22945526 0.5814167 0.11380154 -0.71636754
0001f0 45 4b b2 3d 91 b0 32 be fb bb bd 3e 34 a5 9b bd
       0.08705763 -0.17450167 0.3705748 -0.07599869
000200 2a 1d 08 3e 63 c5 e4 3e 5e c6 68 be 6f 60 8c 3e
       0.13292375 0.44681844 -0.22731921 0.27417323
000210 19 81 8c 3e 91 ab 91 3d 2a 5e e8 be 53 eb 33 bc
       0.27442244 0.07112802 -0.4538434 -0.010981399
000220 10 ea 78 be 26 4f 6c 3d e0 a2 85 be c0 e5 72 be
       -0.24308038 0.05769267 -0.26100826 -0.23720455
000230 08 74 6b 3d af 68 45 be 70 48 b6 bb 52 d3 22 3e
       0.057483703 -0.19278215 -0.0055628344 0.15900925
000240 70 9c f3 3e b5 c1 7c 3e 62 0d 72 be a4 38 67 be
       0.4758029 0.24683268 -0.23637918 -0.225802
000250 9e 7f 84 be c3 01 9d be 9a 0f b0 3d 7b 85 b9 be
       -0.25878614 -0.30665407 0.08596726 -0.3623465
000260 88 9a bf be dd 2b 36 3e 62 2d 0d be ce b1 91 be
       -0.37422585 0.1779017 -0.13786843 -0.28455967
000270 85 0e d5 3e 8d e4 83 be d2 ae dd be 01 18 01 3e
       0.4161264 -0.25760308 -0.4329744 0.12606813
000280 cc 11 0e be 28 68 4e be e8 2d ac 3e dd 91 23 be
       -0.13873976 -0.2015692 0.33628774 -0.15973611
000290 4c 02 cc 3c 95 d6 66 be 26 7d 4e 3e 08 e9 03 3f
       0.024903439 -0.22542794 0.20164928 0.5152745
0002a0 40 28 69 be 2a 4e d9 be 9b 4c a0 be e4 73 5d bd
       -0.2276926 -0.42442447 -0.31308445 -0.0540656
0002b0 2c ec 4e bd 08 7f 4e be e0 ca 5d 3e 72 aa 00 3d
       -0.0505182 -0.20165646 0.21659422 0.03141255
0002c0 d5 fc 3d be 56 a7 e6 bc 7e df 8c 3d 31 14 43 be
       -0.18553479 -0.028155964 0.06878565 -0.19050671
0002d0 29 d3 8b 3e 5d 47 68 be 9a fa 87 3d 5e 45 16 bf
       0.2730954 -0.22683473 0.06639595 -0.58699596
0002e0 1d 3b f1 be fd 1e 65 3d bb aa da be 77 43 3b be
       -0.47115412 0.055937756 -0.42708382 -0.18287455
0002f0 30 8c f5 3b c4 6e 2b be 66 fe 75 3e b8 b6 05 bd
       0.0074935183 -0.16741472 0.24022827 -0.032644957
000300 a0 0c 8f 3e e5 20 5c be b2 5f 06 bd f8 82 47 be
       0.2793932 -0.21496923 -0.032806106 -0.19483554
000310 a8 7b 3e be c8 54 72 bd 2a 58 ff 3e 47 39 34 3e
       -0.18601859 -0.059162885 0.4987195 0.17599975
000320 bb f6 9e 3e db c6 aa be c8 ed 85 be cc dc f0 be
       0.31047615 -0.3335484 -0.26157975 -0.47043455
000330 31 ba 28 3e 99 44 b1 3e 59 4b 07 3e e2 fd ee 3e
       0.16477276 0.34622648 0.13212337 0.46678072
000340 2d 06 3c bf 5a 73 06 3e 26 f8 9a be 28 16 13 be
       -0.73446923 0.1312994 -0.30267447 -0.1436392
000350 92 52 59 be 23 7b 86 3d 23 d2 89 be 2e de 7c bd
       -0.21222904 0.06566455 -0.26918134 -0.061735325
000360 10 4a 4a be 5e 5b 96 be 31 f7 42 3d 3b f2 69 3c
       -0.19754815 -0.29366583 0.04759902 0.014278944
000370 1c f9 c3 be a8 46 65 3e 1e 08 87 3d 59 c4 31 3e
       -0.38275993 0.22390234 0.06593345 0.17360057
000380 bc f1 ea be fb 3f 65 bd ef 79 5b be b5 10 e6 3d
       -0.45887554 -0.05596922 -0.21433233 0.11233655
000390 a6 fc fa be 87 a8 3f bf f7 81 ca 3e 61 f8 18 be
       -0.4902088 -0.7486653 0.3955228 -0.14938499
0003a0 60 d8 cd be 54 d2 75 be c8 e5 68 3d 66 76 8d be
       -0.40204144 -0.24006015 0.05685976 -0.27629393
0003b0 3e c8 9a bd 87 30 9b 3e 19 09 5a be 16 69 9a 3d
       -0.075577244 0.3031046 -0.21292533 0.07539575
0003c0 5d 2f 82 3e e2 7c ce be 68 c1 da bb 62 c2 2b be
       0.2542676 -0.40329653 -0.006675888 -0.1677337
0003d0 c2 3d d4 3c 14 69 86 3d c8 77 1e bf 13 18 00 3f
       0.025908355 0.06563011 -0.6190152 0.50036734
0003e0 78 02 19 bf 4c 8e 3a bf 66 9f b4 be e4 2c b3 3e
       -0.5976939 -0.7287338 -0.3527786 0.34995186
0003f0 b9 81 47 bf ad b3 ca 3d 37 cd e8 be 90 89 cf 3d
       -0.77932316 0.09897552 -0.45469067 0.1013366

linear1.bias f4 [256]
000000 bd 9c 0c be 71 8c 93 3d 93 ae 96 be c5 02 8d bc
       -0.13731666 0.072045214 -0.29430065 -0.017213235
000010 ce 90 00 be 04 d9 02 3b f6 f5 56 be 8e 85 e6 bd
       -0.12555239 0.0019965777 -0.20992264 -0.11255942
000020 c5 09 e5 bc fd 84 e9 bd de 98 56 3e a3 1a 70 be
       -0.02795876 -0.114023186 0.20956752 -0.23447661
000030 54 fa 5b be 9e 2d ad be 70 fe 8f be ca bd 80 3d
       -0.21482211 -0.33823866 -0.28123808 0.062861994
000040 8b 9d 03 3e ab 9c 8f be 67 76 75 be 82 07 83 be
       0.12853067 -0.28049216 -0.23970948 -0.25591666
000050 0e d6 61 3e 2d 83 99 be d4 59 6b 3e a7 ea 2b 3e
       0.22054312 -0.29982892 0.22983485 0.16788732
000060 d7 21 51 3d eb a1 d5 be 8f a2 6e bd eb a8 99 3e
       0.051057663 -0.41725096 -0.058260497 0.30011687
000070 8a 0e 00 3f 5b 1f da be f1 af b9 bd ab 9f a2 be
       0.50022185 -0.42602047 -0.09066761 -0.31762442
000080 af 0e d1 be e2 55 c6 be 42 e2 a8 3e 47 50 4e 3e
       -0.40831515 -0.38737398 0.3298512 0.20147811
000090 90 b7 8c be 36 27 35 3d c5 3b 98 be 41 31 58 be
       -0.27483797 0.044226848 -0.297331 -0.21112539
0000a0 d6 89 89 be ea 40 4a 3c 1c 1f 4c be 8e f2 60 be
       -0.26862973 0.012344578 -0.19933742 -0.21967527
0000b0 a6 91 8e be 8c 1d 7a 3e 21 a0 3e be b6 06 8a 3d
       -0.27845496 0.24425334 -0.18615772 0.06739561
0000c0 87 80 b7 bd f2 c8 ae 3e 77 d1 8e 3e c9 12 92 be
       -0.089600615 0.34137684 0.27894184 -0.28529957
0000d0 76 20 fa 3e 82 b3 77 3f fa a3 14 3e 2c 95 8d bd
       0.4885289 0.9675828 0.14515677 -0.06913218
0000e0 02 11 db 3d bc 4d 6d 3e bb 34 06 be af 4a d6 bd
       0.10696603 0.23174185 -0.13106053 -0.104634635
0000f0 82 36 e5 be 60 91 a2 3e 6b f3 56 be 67 31 d1 be
       -0.4476815 0.31751537 -0.20991294 -0.40858003
000100 88 7f c4 3d 46 ce b3 bd 73 6f 87 be 65 a9 3f be
       0.09594637 -0.08779578 -0.26452217 -0.18716963
000110 22 35 8d be 73 38 cd be 72 a5 29 bd bc 99 da 3e
       -0.275796 -0.4008213 -0.041417547 0.42695415
000120 4e be 1e 3f 70 b7 57 be 8f d6 21 3d 36 d8 09 be
       0.6200913 -0.2106607 0.03951126 -0.13461384
000130 6e 39 4d be 6a 36 d9 3d fa 50 80 be 17 1f e2 be
       -0.20041439 0.10606082 -0.2506178 -0.44164345
000140 ff ca 97 3d c5 66 b7 be 00 ed 29 3e 2d 6e 42 3e
       0.07411765 -0.35820594 0.16594315 0.18987341
000150 93 d6 84 3e 55 ed 99 be 7b 23 d9 bd bb 9d 5c be
       0.25944957 -0.30063882 -0.106024705 -0.21544544
000160 44 7a 86 be 5a 2d c0 bd ab 1f a8 be dc 02 f4 bd
       -0.26265156 -0.0938365 -0.3283666 -0.11914608
000170 ea 5d 7c be 3b 42 25 bc f7 09 64 be d3 9f 8d 3e
       -0.246452 -0.010086591 -0.22269426 0.27661
000180 c5 61 d5 3d 6b cc dd 3e 46 11 61 bd 66 10 26 3d
       0.10419039 0.4332002 -0.054948114 0.040542983
000190 6f 30 13 be 29 6c b6 3e 73 54 26 3d d3 af 7e be
       -0.14373945 0.35629395 0.04060788 -0.24871759
0001a0 bb 11 d0 bd 97 a4 ef be 16 c2 01 be 15 e8 14 3f
       -0.10159632 -0.4680526 -0.12671694 0.5816663
0001b0 71 a3 9d be 8c fe 53 be 4e 2d 94 bd da f8 59 be
       -0.30788758 -0.2070257 -0.07235204 -0.21286336
0001c0 78 29 88 be 45 4e e5 bd ce 02 80 be 36 3e ef bd
       -0.26594138 -0.11196569 -0.2500214 -0.11681788
0001d0 32 df c8 be 57 1d d7 bd 9e 80 f2 bd 9a 78 bf be
       -0.39232785 -0.10503643 -0.11840938 -0.373967
0001e0 09 16 26 be 7d c2 b8 3e c8 d9 47 be c5 c9 99 be
       -0.16219343 0.36085883 -0.1951667 -0.3003675
0001f0 32 53 f2 b9 d5 00 a0 be e8 2d 76 bd 5a 52 14 be
       -0.00046219822 -0.31250635 -0.060102373 -0.1448454
000200 91 d4 79 3d 19 53 f1 bd 02 f7 9f be 23 b6 99 be
       0.060993735 -0.11783428 -0.3124314 -0.30021772
000210 8c 3d d3 bc f1 cd ee bd 83 04 c5 bc e8 c7 67 be
       -0.025786184 -0.11660374 -0.024050003 -0.22634852
000220 79 48 f4 be 48 62 2f 3d 71 30 09 bf 68 60 ad 3d
       -0.47711542 0.042818338 -0.5358954 0.08465654
000230 c4 ef db bd b4 66 4b 3e 24 aa df be 27 ee 3d be
       -0.10739091 0.19863397 -0.43684494 -0.18547879
000240 1c 52 24 be 63 3e ab 3d 44 b7 e0 be 73 45 ab bd
       -0.16046947 0.08361509 -0.4388982 -0.08362856
000250 a5 95 ca be 40 0f 15 be 54 34 b2 be e4 e5 8d 3d
       -0.39567295 -0.14556599 -0.34805548 0.06928614
000260 04 42 d8 3e 80 d0 73 bc 34 4a 84 be 54 7d 28 be
       0.42237866 -0.014881253 -0.25837862 -0.16454059
000270 2d 92 2f be 9d 4e 70 be 08 61 6a be f7 8b b5 be
       -0.17145605 -0.23467489 -0.22888577 -0.35458347
000280 59 66 05 bf ab e6 a0 be 22 bf 2b 3e 39 b7 81 be
       -0.52109295 -0.31425986 0.1677213 -0.253351
000290 6c c7 a7 bd 40 02 fd 3d b1 2a 45 3c c4 72 9e bd
       -0.081923336 0.12353945 0.012034104 -0.077367336
0002a0 5c b8 ab 3e 61 13 17 be 1f 86 83 be 4c f9 42 be
       0.33539093 -0.14753486 -0.25688264 -0.19040412
0002b0 59 da 8e 3e 40 bc 81 bd d8 34 1a be 9a 5e 84 3f
       0.2790096 -0.06334734 -0.15059221 1.034137
0002c0 45 d4 88 be 09 48 af bd 01 22 d7 be 80 f1 21 be
       -0.2672445 -0.085586615 -0.4201813 -0.15814781
0002d0 b9 4f 34 3e 88 ae 88 bc 30 11 f4 bc 50 9d c8 3e
       0.17608537 -0.016684785 -0.029793352 0.3918252
0002e0 60 fc 9c be ad 6d 1c 3d 50 cd 12 bd a3 b0 e8 3b
       -0.30661297 0.038190532 -0.035840333 0.007101135
0002f0 ab 4e d1 bd 54 df 60 3e eb 47 e6 bc cc 47 99 be
       -0.10220083 0.21960193 -0.028110465 -0.2993759
000300 dc bd b9 be ed 61 c2 3e 38 16 58 3f 84 c5 47 3e
       -0.36277664 0.37965336 0.84408903 0.1950894
000310 d4 6d b0 be c1 2d 3d be 2f eb d4 3d 62 46 b2 bd
       -0.34458792 -0.18474485 0.1039642 -0.08704831
000320 fb ea 6b be 1f 82 9a be 5a 60 84 be 2f 31 d0 be
       -0.23038857 -0.301774 -0.2585476 -0.40662524
000330 7e 9c 79 be f0 12 52 3e d6 61 0b 3e f7 17 fd bc
       -0.24376103 0.20515037 0.1361154 -0.030895216
000340 63 e6 de 3d e1 16 0e 3e d0 42 bf 3c e2 97 20 bd
       0.108837865 0.13875915 0.023347288 -0.039207347
000350 42 8f 74 be 62 f9 61 3e 56 86 38 be ab 7c 93 be
       -0.23882774 0.22067788 -0.18019995 -0.28806052
000360 10 28 7f 3c 2a eb 11 3e 74 66 e9 be 5b 9c d5 bc
       0.0155735165 0.14249864 -0.45585978 -0.026075533
000370 91 2e 2d be f4 1b 8b bd 5e 59 4b be f7 ca d5 3d
       -0.16912295 -0.06792441 -0.1985831 0.10439103
000380 f8 43 02 b9 08 04 98 be b1 80 c2 3c 9f d8 06 be
       -0.00012423086 -0.29690576 0.023743005 -0.13168572
000390 bb c0 2d be d6 cf 95 3e 49 7b 8e be 03 07 b3 be
       -0.16968052 0.2926013 -0.27828434 -0.34966287
0003a0 25 21 22 be e3 85 af bd d8 2f dd be 94 34 85 bd
       -0.15832956 -0.08570459 -0.43200564 -0.06504169
0003b0 23 1e e4 be 1b 11 8f be 39 02 63 3e 6a 12 d5 3c
       -0.44554242 -0.27942738 0.22168817 0.026009757
0003c0 48 aa 83 bd 2d 0f e5 bd 0c 30 93 3c 7b 8f 04 3f
       -0.06428963 -0.11184535 0.017967246 0.51781434
0003d0 c2 35 46 be 70 07 17 be de c7 dc bd 5a 1b 93 be
       -0.19356444 -0.14748931 -0.10780309 -0.28731805
0003e0 49 f6 ce be 3b d8 8f be e7 e6 39 be 69 3a fc 3c
       -0.40422276 -0.28094658 -0.18154489 0.03078957
0003f0 f8 19 d3 bd aa 75 95 be 9b 46 d5 bd 2e 51 bd 3e
       -0.103076875 -0.29191333 -0.104138575 0.36975998

linear2.weight f4 [3, 256]
000000 0e 37 c6 bb 04 a6 86 3e 8c 9f a5 be d5 1d e1 bd
       -0.0060490435 0.26298535 -0.32348287 -0.10992018
000010 aa a6 cb bd c6 8b 1f 3f 68 9d 41 bd c0 7b 4c bf
       -0.09943898 0.6232265 -0.047269255 -0.7987633
000020 4d 42 8c be f1 e4 e6 39 f2 ea c9 3e cc 8f 75 be
       -0.27394333 0.00044039593 0.39437062 -0.23980635
000030 9a 28 8d bd ce 53 ec 3c 70 76 0e 3c dc 45 29 3d
       -0.0689251 0.028848555 0.00869523 0.04132639
000040 62 1d 8e bd ce 31 97 3c 27 49 6f be 00 a0 b8 bd
       -0.06939198 0.018456366 -0.23367749 -0.090148926
000050 e2 c4 93 3e 97 2b a9 ba 7f 68 16 3f bf fa f7 bb
       0.28861147 -0.0012906668 0.587532 -0.007567733
000060 a0 66 73 3d c6 82 32 bd ba ff 75 3d 50 e9 b4 3e
       0.059424043 -0.043581747 0.060058333 0.35334253
000070 ab 9f 5a 3e cd ac 1f 3d 58 a5 13 bd 9c d1 a5 bd
       0.21349971 0.038983155 -0.036046356 -0.080966204
000080 95 c9 06 3d 0e d8 84 ba e1 3c 06 3f 49 44 a8 3e
       0.032907087 -0.001013519 0.52436644 0.32864597
000090 4c 70 e2 bc 6b 22 6e bd 52 d7 fb ba 2f d1 89 bd
       -0.027641438 -0.058138292 -0.0019213951 -0.06729352
0000a0 1b e3 64 bc 24 36 05 3e 29 c5 4e bd 10 0f 50 3d
       -0.013970162 0.13008934 -0.050480995 0.050795615
0000b0 6e 5b 8b bd 35 c9 39 3e 1d f5 16 3e cd c7 ea 3e
       -0.06804548 0.1814316 0.14741941 0.4585556
0000c0 5e 69 66 be b9 2a c9 3e dc 4c b3 3e f3 fe 3b be
       -0.22501132 0.39290407 0.35019577 -0.18358974
0000d0 21 11 eb 3e 23 2e e3 3e 56 44 6e 3d aa 25 5b 3e
       0.45911506 0.44371137 0.05817064 0.21401086
0000e0 f5 d4 98 3d cb a9 c4 3e b0 3a 76 3a f0 0e 17 be
       0.07462493 0.38410792 0.00093929004 -0.14751792
0000f0 b0 57 d2 3d ef 0e 16 3e 1d 63 3d be 01 38 51 3d
       0.10270631 0.14654134 -0.1849484 0.0510788
000100 bb 38 78 3e e4 24 3a 3c e9 e3 e0 bb 2e 15 4a bd
       0.24240391 0.0113613345 -0.0068631065 -0.049336605
000110 fe 28 01 bd 96 bb 7c be e9 ee 7b bd 33 35 ec 3e
       -0.031533234 -0.24680933 -0.06150714 0.46134338
000120 23 ae be 3e 8f 8d 8a bd e6 7f 8c be d4 a1 8d be
       0.3724223 -0.067652814 -0.2744133 -0.27662528
000130 1e b7 85 be 26 14 04 3f 99 c3 28 be 99 cc a4 3c
       -0.2611627 0.51593244 -0.16480865 0.020117091
000140 ea 7d 51 bd 0c 0e 6d bd ec 5b 73 3e 30 4d 3e be
       -0.05114547 -0.057874724 0.23765534 -0.18584132
000150 e8 c8 75 3e 70 dc 96 bd 6f c6 0d bd a2 5e 9c be
       0.24002421 -0.07366264 -0.03461307 -0.3054095
000160 89 2d de be f7 e1 ce bb 3a a2 8f bd b3 d9 04 be
       -0.43394116 -0.006313558 -0.07013364 -0.1297367
000170 51 8a 30 bd 40 b9 2b 3e d8 41 28 3b 51 c0 15 3f
       -0.04310066 0.16769886 0.0025674012 0.58496577
000180 13 26 4f bf 4d 68 88 3e f0 3c 8c 3d 1a 2d 8e be
       -0.8091747 0.26642075 0.068475604 -0.27768785
000190 e6 35 d9 be 89 93 e8 3e ee 64 23 3e e4 66 c0 ba
       -0.42423934 0.4542506 0.1595647 -0.0014679101
0001a0 4c 29 8e be 99 c8 90 be 5e 28 35 3d 5f fe 82 3e
       -0.27765882 -0.28278044 0.04422795 0.25584695
0001b0 fd 8f 64 bd 6d 61 cb be 77 b9 8b 3e 03 54 ab bd
       -0.05580138 -0.39722767 0.27289936 -0.08365633
0001c0 a1 27 0e 3b 79 60 1f bb 86 3a c7 bd 8b 17 af 3b
       0.00216911 -0.0024318977 -0.09727959 0.0053433827
0001d0 5c f8 53 bd 67 29 91 be b6 92 00 3e 44 f8 70 bd
       -0.051750526 -0.283519 0.12555966 -0.058830515
0001e0 e3 e8 c0 bc 57 de ad 3e 85 a3 ef bd cf 3c b4 be
       -0.023548549 0.33958694 -0.11701111 -0.35202643
0001f0 bf fe ad 3d d8 fc 1c be b4 80 77 3e a3 c2 df 3e
       0.084958546 -0.15330827 0.2417019 0.43703184
000200 c8 95 39 bf 97 cb 06 3e 38 f4 92 be c6 42 0a bd
       -0.72494173 0.13163601 -0.2870195 -0.033755086
000210 26 3d cb 3e 53 76 58 bc d5 4e 3a 3e 60 2f 51 be
       0.3969509 -0.013211804 0.18194135 -0.20428228
000220 0e 88 e2 3b 68 8b 0e 3f 11 37 b8 be 06 d3 89 3e
       0.0069131916 0.5568147 -0.35979512 0.2691881
000230 a4 20 7d bd 09 16 05 be 6a f7 c5 be dd b8 8d 3d
       -0.061798707 -0.12996687 -0.38665324 0.069200255
000240 4d c3 9c be 6a a9 9b be bd e3 b0 3c 2d 93 09 bf
       -0.30617753 -0.3040269 0.02159297 -0.537402
000250 06 31 60 3b 23 10 5a be 49 f3 ad be 45 f1 f7 be
       0.0034208908 -0.21295218 -0.33974674 -0.48426262
000260 2b c2 9b 3e d4 80 8f bd a1 67 33 3d 86 6c 16 bd
       0.30421576 -0.07006994 0.0438 -0.03672459
000270 58 f2 5e bd aa 22 5f 3e 3b b3 05 bf 78 5a 38 bd
       -0.054430336 0.21790567 -0.5222661 -0.045008153
000280 f9 30 92 be 50 ee be bd 0b 44 92 3e 63 ca 48 3c
       -0.28552988 -0.09322798 0.28567538 0.012255284
000290 a5 7e 0b 3e 14 83 ed 3d c2 3d 42 be b9 c0 fa 3c
       0.1362253 0.11597267 -0.18968871 0.030609475
0002a0 fb 8a f0 3e ad ed 48 be f5 2d 1d bb ad 6a 9b bd
       0.46981034 -0.19621916 -0.0023983691 -0.07588706
0002b0 73 05 0f 3e 50 27 42 be d2 8c 07 be ab 44 b6 3e
       0.13966922 -0.18960309 -0.13237312 0.35599265
0002c0 0f a2 04 be e3 2a e2 be 8f bf 5b bd cd 61 fb 3e
       -0.12952445 -0.44173345 -0.05364948 0.49098054
0002d0 3c ec 4d 3e 7d f4 42 3d ac c0 56 be 0c e9 ae 3e
       0.20109648 0.047596443 -0.20971936 0.34162176
0002e0 f1 26 a8 bc e7 8f 16 bd d5 54 76 be f0 4c 36 be
       -0.020526381 -0.03675833 -0.24055798 -0.17802787
0002f0 58 d4 85 3d f7 c0 7c bd f8 86 c6 3e ec 68 60 3d
       0.06534642 -0.061707463 0.38774848 0.05478756
000300 69 8b 18 be e7 3b cb 3e 90 4c 3e 3e 97 fc 2d 3d
       -0.14896931 0.3969414 0.18583894 0.042477217
000310 04 a6 0e bd b2 ae 68 be 3b c6 1d be ca c3 07 be
       -0.034826294 -0.22722891 -0.1540765 -0.13258281
000320 64 fe bd 3d af 2a 9e 3c 63 e4 8d bd cc 1c 46 be
       0.09277037 0.019307462 -0.06928327 -0.19346923
000330 50 6b 9c be 09 ee 23 be de 23 fd 3e da 43 8a bd
       -0.30550623 -0.16008772 0.49441427 -0.06751223
000340 46 76 cd 3e 7a a0 fc bd ae 60 00 bf 9a 2f 0d 3f
       0.40129298 -0.12335296 -0.5014752 0.5515076
000350 55 a9 2f bc 99 41 82 3e f9 6c 9c 3c e4 76 f1 bd
       -0.010721524 0.25440672 0.019094931 -0.11790255
000360 5a 8e bc bd 65 8e 32 3f 7f a5 5b be cc a1 1f 3d
       -0.09206839 0.69748527 -0.2144985 0.03897266
000370 4a cc 05 3b 2f 9d 12 3d f3 74 0a be 76 d6 c6 3d
       0.0020415955 0.035794433 -0.13521175 0.09708874
000380 37 63 6e 3e b9 8b e4 bd af c4 97 3e cb f8 d2 3e
       0.23280035 -0.111594625 0.29642245 0.4120544
000390 9f 7d 1c 3b 4a 60 f5 3e a1 91 15 be 0b aa 83 bc
       0.0023878587 0.47925025 -0.14606334 -0.016072294
0003a0 f5 a2 72 3c ce 9b f3 bb 0b b6 4b bd 9b 93 a4 3e
       0.01480936 -0.007434345 -0.049734157 0.32143864
0003b0 01 2d 80 be bb 3b a0 bd c7 a7 52 3e 61 92 c9 bd
       -0.25034335 -0.07823893 0.20571814 -0.09842373
0003c0 88 f9 1a 3e cd ae fc bd 31 dc 9a be 89 b2 72 3e
       0.15134251 -0.12338028 -0.30246118 0.23700918
0003d0 3c c0 36 bd fe 48 83 3e 7e 7a 24 3d 60 ba a4 bd
       -0.044616923 0.25641626 0.04015588 -0.08043361
0003e0 78 b3 81 bd f9 f4 76 bc 73 30 9a bc 87 fb 34 bf
       -0.06333059 -0.0150730545 -0.01882193 -0.706963
0003f0 0f 46 55 be b0 01 74 bd 9f 00 1c bd c8 c7 d6 3e
       -0.20827506 -0.05957192 -0.03808653 0.41949296

linear2.bias f4 [3]
000000 00 e2 8f 3e e4 b4 4c 3d fc 69 08 bd
       0.28102112 0.0499772 -0.0333042
