ready_files/snake-ai-pytorch-main/model/model.pth (torch, 16787 bytes, 4 tensors)

linear1.weight f4 [256, 11]
00000000: ac68 95be 4472 44be 845a 50bd 6230 6abe
00000010: 7ee0 883e fa35 9b3e df8b 2e3e 882e 7bbc
00000020: 40e0 dd3d ef3d 61bd c3ab 90be ea92 18be
00000030: 7c1d 7a3e 42c6 43be 4555 44be bfaf 283e
00000040: 25b3 1cbe bd8d 663e 1f7c 273e b640 bb3d
00000050: edd1 803d ff11 113e 47b7 633c 3d5f a4bd
00000060: ca4f a0bc cd17 72be a3c7 62be 5a30 8abe
00000070: 7a75 a23d 2429 c1bd 7d15 9ebe abae 3ebc
00000080: a9d2 42be 755a d13d e9de 933d e624 74bd
00000090: 5bd6 21bd 98ca 3d3e 80e6 6f3e d8fe 38be
000000a0: 8e81 893d a75b 0abe 1c89 963e 49b7 a2bd
000000b0: c942 0c3e 3b4a e3bd 4868 bbbd 7172 f6bd
000000c0: 5068 05be 5000 093c a103 003e 14e8 6c3d
000000d0: a442 113e becb 923d a4e7 adbd a004 933e
000000e0: de52 1c3e 4ef3 79be 5446 9dbe 3c9b 22be
000000f0: bca7 c53c 2310 613e 7301 143b d1f1 1cbe
00000100: b586 553e 74b1 41be 8719 453e ec57 c83d
00000110: b323 953d af7a d93d 9b21 e03d 7a37 ff3d
00000120: 1c14 1abe 6a6b 073d 0f52 063e 1a34 d63d
00000130: c4e9 eabd 7681 b6bc d436 6d3e 4e01 273d
00000140: e474 20be 5575 2ebe 1490 5dbe 0d62 03be
00000150: be09 bf3d eee8 95be 4632 8b3e bf61 bbbc
00000160: 2cc3 bb3d 2ea3 b73d 11e1 523e fadb b83b
00000170: bf9f c5bc 11f7 5ebe be09 e23d c4e1 dc3d
00000180: 3acc ecbd 3a0c 983e 33e4 81be d620 87be
00000190: ee53 353e c896 383e 4030 763e c30d c33d
000001a0: 4f80 e13d 02ed 88be c496 1ebe e23a 243e
000001b0: e7ce 8a3e 0b14 373e 41c9 8f3e 9071 83be
000001c0: 6fdd 7d3e 6ff0 2c3e 794e edbc f8df 143c
000001d0: ccc7 9cbc 9132 803e 2476 58be 3d71 f03c
000001e0: 5e9e 593e a6a4 313e b8a0 923e 4e19 33be
000001f0: 5f48 2fbe fe8d 5ebe 9f26 54bd d370 91be
00000200: ea9c a7bd a17d 60be 3ea1 a1be d093 4cbe
00000210: ec45 39be a84f d0bd f6f2 953e aab1 dcbd
00000220: 5060 80be 84a2 a93d 2752 3abe b469 87be
00000230: ffe0 99be e0fc 743d 2c25 c5bd 98fc 65be
00000240: 4802 693e 4580 863d 1a08 843d be44 e8bd
00000250: 37e7 ee3d e4d8 42be c9fc d7bd 65a7 323d
00000260: 03d5 26be 785c 98bd b991 333e 4e6e 383e
00000270: 2887 29be 1585 87be 3b6e 303d 1ba0 0dbd
00000280: 94ff 903d 4434 423e af26 8fbe 1c9a 62be
00000290: daef 43be 11e0 93be 66c6 6d3d 4594 88be
000002a0: 3228 233e e6b3 8e3e 88d9 82bd f379 5d3d
000002b0: bbf7 64be 893b 83be 838d 973d 27d5 653d
000002c0: cf8d 2e3e 4117 a73d f6d3 a73e aa84 23be
000002d0: 4d98 043d 220a a13c e153 5d3e 692f fcbd
000002e0: 47f7 3cbe 3b67 eb3d 0ed3 54be 4340 6f3d
000002f0: 229d 2c3e b6c7 e93d 4083 75bd 63f2 42be
00000300: aa00 74be e6b2 68be 7cc7 203e d97e d73d
00000310: 58bd dcbd 3e86 e63d c69a 80be e2a6 6a3e
00000320: 0d48 1e3d 8761 99bd ae06 8a3d 2391 5dbe
00000330: 5fde 5bbe 2fd2 1d3e 31b3 a1bd 5cf8 153d
00000340: b335 6b3e b059 343d 3ae2 813c f070 4abd
00000350: 0123 a63c c93e 883d 21eb 71be c7fc 30be
00000360: ee4f 0f3d cd6c 33bd 3b74 80be 63a3 8cbd
00000370: 638e 5dbd 9565 9fbd 6d44 783e 6ad3 21bc
00000380: 310c 203e db2a 91be 39ec 79bd 86cc 0e3e
00000390: 4e09 ccbd a278 84bd 136a fb3d 9f7f 83be
000003a0: 00bc 46bd 69eb 32bc 9ac4 4f3c aa02 39bd
000003b0: 408f cd3c 7be7 54be d77b 80be 1807 09be
000003c0: 2d35 6e3e d916 04be a0f3 a43c 7b4f 1e3e
000003d0: c572 553e 271f ee3d 0621 17bc 7c3c 70be
000003e0: 6697 84bd a7d4 0fbd 2767 08bb df2a a3be
000003f0: 9ef4 2ebe 1902 80be da38 443e 0a88 9f3e
-0.2918142 -0.19184214 -0.050867572 -0.22870019 0.26733774 0.30314618 0.17045544 -0.015330918
0.10833788 -0.054990705 -0.28256044 -0.14899793 0.2442531 -0.19118598 -0.19173153 0.16473292
-0.15302713 0.22515006 0.16355942 0.09143202 0.0629004 0.14167021 0.013898677 -0.08025978
-0.019569296 -0.23641892 -0.22146468 -0.26990014 0.07932563 -0.09431675 -0.3087577 -0.011638324
-0.19025673 0.102223314 0.07220251 -0.0596055 -0.039511066 0.18534315 0.23427773 -0.18065965
0.06714164 -0.13511525 0.2940148 -0.07945115 0.13697352 -0.11098143 -0.091507494 -0.12033547
-0.13028073 0.008361891 0.12501384 0.057838514 0.14185578 0.07167767 -0.084914476 0.28714466
0.15265986 -0.2440922 -0.3071772 -0.1587953 0.024127834 0.21978812 0.0022583872 -0.1532662
0.20852168 -0.18915349 0.19248019 0.09782395 0.072822 0.10619103 0.1094391 0.12461753
-0.15046734 0.033061422 0.1311724 0.10459156 -0.114703685 -0.022278529 0.23165447 0.04077273
-0.1566959 -0.17036946 -0.21636993 -0.12830372 0.0932803 -0.29279274 0.27186793 -0.022873757
0.091680855 0.08966671 0.20593669 0.0056414576 -0.024124024 -0.21773936 0.110370144 0.10785249
-0.115623906 0.29696828 -0.25369415 -0.2639224 0.17707798 0.18026268 0.24041843 0.09524109
0.11010801 -0.26743323 -0.154872 0.16038087 0.2711098 0.1787874 0.28083232 -0.2567258
0.24791501 0.16888593 -0.028968083 0.009086601 -0.01913824 0.2503858 -0.21138817 0.029350871
0.21251819 0.17347965 0.28638244 -0.17490122 -0.17117451 -0.21733853 -0.051794644 -0.2840639
-0.08184226 -0.21922924 -0.3156833 -0.19978261 -0.1809308 -0.10171443 0.29286927 -0.10776074
-0.2507348 0.082829505 -0.18195401 -0.26447833 -0.3005447 0.059811473 -0.096262306 -0.22459638
0.22754776 0.06567434 0.06446858 -0.113412365 0.116651945 -0.1902805 -0.10546262 0.04361667
-0.16292195 -0.07439512 0.17536058 0.18010828 -0.16555464 -0.2646872 0.043073874 -0.034576517
0.07079998 0.1896525 -0.279592 -0.221291 -0.19134465 -0.28881887 0.058050536 -0.2667562
0.15933302 0.27871627 -0.06389147 0.054071378 -0.22360127 -0.2563136 0.07400038 0.05611148
0.17046283 0.08158732 0.327789 -0.15968576 0.032371808 0.019658152 0.21614029 -0.1231373
-0.18453704 0.11494299 -0.20783636 0.058410894 0.16856816 0.11415045 -0.059939623 -0.19037776
-0.23828378 -0.22724494 0.15701097 0.10522241 -0.10778302 0.112560734 -0.25118083 0.22915223
0.03864293 -0.07489305 0.06739555 -0.21637397 -0.21471547 0.1541221 -0.07895506 0.036613807
0.22969703 0.044030845 0.015854944 -0.04942411 0.020280363 0.066526 -0.23624851 -0.17283927
0.034988336 -0.043804932 -0.25088677 -0.06867101 -0.05409087 -0.07783047 0.24244852 -0.009877065
0.1562965 -0.2835301 -0.061016295 0.13945207 -0.09962712 -0.064683214 0.122760914 -0.25683305
-0.048519135 -0.010920384 0.012681151 -0.045168556 0.025092721 -0.20791428 -0.25094482 -0.13381612
0.23262472 -0.1289934 0.0201357 0.15460007 0.20844562 0.116270356 -0.009224182 -0.23460573
-0.064741895 -0.03511491 -0.0020813437 -0.31868646 -0.17085502 -0.250016 0.19162312 0.31158477

linear1.bias f4 [256]
00000000: f693 dfbb 4e50 053e e5c3 733e 2e88 d8bc
00000010: 8092 343e 7558 f13d 8e29 0fbe a175 a23d
00000020: d9a3 5bbe 896d 133e 02be 4bbe da69 ac3e
00000030: 78b4 84be 0de4 913d e0b8 053e ae5e a5bc
00000040: a077 03be a93a 713e 366a 36bd e6af c63c
00000050: d499 31bd 4893 10be 1b26 003d a1dc 9d3c
00000060: 30c0 083c d01b 0dbd afe2 75be b6f0 15be
00000070: 1d12 0abe 8db1 8b3c 246a 08be a59e a93a
00000080: e888 2fbc 7c8f e6bc e1c7 84be 8ed8 2cbe
00000090: 472f 1abd a18c 49be 50e1 9a3d 5373 6abe
000000a0: 6a69 b0bd e1ed 583e 273e 8c3e 4598 02be
000000b0: 0292 6fbe e974 d5bd 8a19 81bd 77e4 ef3d
000000c0: d944 0d3e 7e72 353e 7093 bebd 992d f63d
000000d0: 7321 323b 0dac fbbd b883 87bd e7da f73d
000000e0: 500b 8ebe 8219 223e 4b94 87be ef3a 71be
000000f0: 63af 17be 7823 3cbe 179f a7be e786 e83d
00000100: 2382 4d3d d496 85bd 7b7d 19be f034 c13c
00000110: 81f8 2d3d 311a 383d bf95 bfbd 7bba df3d
00000120: e128 c43d c5b8 653e e31d 6b3e ec77 343d
00000130: ac6d 843e 1aa6 943e a6be 933e 5c53 be3d
00000140: 1efa 2f3e 9d25 64bd e93c f43c 5b55 8b3e
00000150: 3c70 5c3e a729 29be a1fa 5d3e df45 7abd
00000160: e41d b1bc 23d1 823c df95 ddbd a9cd e23c
00000170: 1681 2b3c 22f1 45be 5549 83bd 735d 533e
00000180: 6c1a 7e3c ec02 99bd c178 403e 26d6 64be
00000190: c976 883e 3657 bc3d 730d 88be 20be 523e
000001a0: 5ff4 553d 6fef 4abc 73b0 57be 6724 dd3d
000001b0: 3130 793e 7052 943d f18e 423e 11c5 57be
000001c0: 5cc6 79be 0da9 2fbe 1d2a 423e 6a8d 15be
000001d0: b7ce 893d 11b1 c9bc 4ca8 01be f57f 473e
000001e0: 7c4e 4e3c 9c08 9bbc 8e28 9d3d 96df cd3d
000001f0: 2ca0 603e 313c a0bc 9d39 583e 3006 903e
00000200: 9cc5 0dbe bfe4 20be be17 0d3e 19f4 98be
00000210: d63f 413e 05c6 3abd 8cf4 78be 57ad 503d
00000220: 5a3c 95bd 6729 413d c85c 163e 7888 f23c
00000230: 09df a5bd 9283 a3be d6de 403e 1854 28be
00000240: 31b7 a93d ca88 55be edf7 d7bd 90cd a33d
00000250: 09ea c5bc 5a3c 213b 66fc 5dbe b8a0 6bbe
00000260: b955 4e3e 4d92 3f3e 9c47 46be 7e6b 71be
00000270: 14ce 963d 94d6 233d 1c13 7f3e 7fb6 863e
00000280: f4f6 93be e469 4dbd 26d0 0ebe 7faa 6abe
00000290: b5ca 85be 5975 14be 7c05 673e 1496 6dbe
000002a0: 1aa0 b83d 721c 2dbd 3cf7 25bd e141 39be
000002b0: b617 52bd b2e8 d8bc 2895 293e 1cfe 9abe
000002c0: e87d 223e f3ad 273e fdf2 d4bd 7e48 6d3e
000002d0: a38b a13d 91fe 0a3e 6558 3e3e c03d f5bd
000002e0: 4367 35be dda0 753d 5faf 683e 4cd8 093e
000002f0: 15c7 4ebe 1c38 913e c3ae 39be 66e4 323d
00000300: e2df 0dbe b083 e43c f807 25be 8bd0 98be
00000310: 8a17 853e 99d4 6abe 5433 58be 15fe 2c3e
00000320: 5314 283e 07e5 443c d9fe 0f3d 01ac 59bc
00000330: e3da e3bd e28b 363c f463 933e fcea 7ebe
00000340: 909d 453e e13f 063e 6797 e93b d90a 853e
00000350: b012 eebc 349f e9bd df61 123e c7d5 3cbe
00000360: 45cd 03bc c082 813e 8cd2 2cbe e962 2dbd
00000370: 644b 89be 4131 7dbd 1e42 81be 8f1d f2bc
00000380: 0d76 163e fe52 7bbe c0e2 1c3e 377f 273e
00000390: 5f1f e43d 4579 85bd 7af2 78bd 6ef5 e6bb
000003a0: 1f51 cc3d cf09 733e 79ad d8bd 1b7a 0b3e
000003b0: 7b17 4abb fce3 83bd 88b0 5e3e 216f 26bc
000003c0: 6f58 a23e 567a ad3c b6a9 093e 50a4 923d
000003d0: d44e 1d3e 553e 4cbe 20a9 c93d 3a7e 77be
000003e0: 8f65 20bd 54bc c23d 66d0 6d3e f438 f0bd
000003f0: 7b48 b2bc 665b 14bd 702b 223e bf01 413d
-0.0068230582 0.13018915 0.23805197 -0.026432123 0.1763401 0.1178445 -0.13980696 0.07932592
-0.21449222 0.14397253 -0.19896701 0.33674508 -0.25918937 0.07123575 0.13058805 -0.020186748
-0.12838602 0.23557533 -0.044534884 0.024253797 -0.043359593 -0.14118683 0.03128634 0.019270243
0.008346602 -0.034450352 -0.24012254 -0.14642605 -0.13483472 0.017052436 -0.1332174 0.0012940957
-0.010713793 -0.02814459 -0.25933746 -0.16879484 -0.037642743 -0.19682552 0.07562506 -0.22895555
-0.08613856 0.21184494 0.27391168 -0.12753399 -0.23395541 -0.104226895 -0.06303699 0.11713498
0.13795795 0.17719457 -0.09305465 0.12020416 0.0027180582 -0.122886755 -0.0661692 0.12102299
-0.27743006 0.15830043 -0.26480326 -0.23557638 -0.14812998 -0.18372905 -0.32738563 0.113538556
0.050172936 -0.06522909 -0.14989273 0.023584813 0.04247332 0.044946853 -0.09354734 0.1092424
0.095781095 0.22433765 0.2296062 0.04405968 0.25864923 0.29032975 0.2885639 0.09293243
0.17185256 -0.055699933 0.0298142 0.2721356 0.21527189 -0.16519795 0.21677639 -0.06110179
-0.021620698 0.015968865 -0.10819601 0.027685957 0.010467788 -0.19330266 -0.06410471 0.20641117
0.015509229 -0.074712604 0.18796064 -0.22347316 0.26653126 0.09196322 -0.2657276 0.2058034
0.052235004 -0.012386187 -0.21063404 0.10797959 0.2433479 0.07242286 0.1899984 -0.21071269
-0.24392074 -0.17154332 0.18961377 -0.14604726 0.06728881 -0.024620565 -0.12661856 0.19482405
0.012591954 -0.018925004 0.07673751 0.10052411 0.219361 -0.019559951 0.21115728 0.2812972
-0.13844913 -0.1571226 0.13778588 -0.29873732 0.18872008 -0.045599002 -0.24312037 0.05094656
-0.07286902 0.047158625 0.1468383 0.029606089 -0.08099181 -0.31936318 0.18835005 -0.16438329
0.08286894 -0.20852962 -0.10545335 0.07998192 -0.024159448 0.0024602623 -0.21678314 -0.23010528
0.20149888 0.18708153 -0.19363254 -0.23576161 0.07363525 0.03999956 0.24909633 0.26311108
-0.28899348 -0.050149813 -0.1394659 -0.22916602 -0.26131216 -0.1449789 0.22560686 -0.23201782
0.09014912 -0.042263456 -0.040518984 -0.18091537 -0.051292144 -0.026478145 0.16560805 -0.30271995
0.15868342 0.1637495 -0.10397909 0.23172185 0.07887962 0.13573672 0.18588407 -0.119746685
-0.17715172 0.059967864 0.22723149 0.13461417 -0.20193131 0.2836312 -0.18133073 0.04367485
-0.13854936 0.027894825 -0.16116321 -0.29846606 0.2599452 -0.22932662 -0.2111333 0.168938
0.16414003 0.012017495 0.03515515 -0.013285638 -0.11125734 0.011141749 0.28787196 -0.24894327
0.19298387 0.13110305 0.0071286443 0.2598484 -0.029061645 -0.11407319 0.14295147 -0.18440925
-0.008044546 0.25295067 -0.16877192 -0.042330656 -0.2681533 -0.06181455 -0.25245756 -0.02955511
0.1469347 -0.24543378 0.15320873 0.16357122 0.11138796 -0.06517271 -0.06077812 -0.0070483005
0.0997641 0.2373421 -0.10579962 0.13620798 -0.003083675 -0.06439969 0.21747029 -0.010158331
0.31708094 0.021176498 0.13443646 0.07160246 0.15362102 -0.19945653 0.09846711 -0.24169245
-0.039159354 0.09508577 0.23224029 -0.11729613 -0.021763077 -0.036219977 0.15836883 0.047120806

linear2.weight f4 [3, 256]
00000000: cb25 72bd 9624 d2bc 7010 8c3b c89d afbc
00000010: 71e1 6cbd 521b 0fbd 9d1e eabc b4db d83c
00000020: 60e6 733d 4c62 89bd 6e01 7b3b 50e2 dabd
00000030: f071 1e3c 7616 64bb eed0 6cbd ace6 17bc
00000040: ca2a 33bd 4f6e 1a3d 705e 9d3d 7597 08bd
00000050: 1492 ab3c f8ed c43c 8c68 9e3c a5a1 aebb
00000060: fa3f c3bc bafd 803d 6a13 82bd e860 42bd
00000070: e951 80bc 224a 02bd 7a23 7cbd e2b5 213d
00000080: edfb d1bd 9f08 9abb 7230 1ebd 878b 9cba
00000090: 95cb 44bd 6ee3 aabb 0781 f83c 1aa4 e8bb
000000a0: d852 093d 76db 93bd 7d44 80bc 3172 213d
000000b0: 2a33 0e3d cf9c a4bd e400 3f3d 250c 43bc
000000c0: 3fde 70bd e178 17bd b5c5 3b3c 3f81 79bb
000000d0: d74e 59bc 643f 35bd f6e0 4e3d e468 583c
000000e0: 1ac3 08bd 6dc3 7cbd 8117 553b c455 ff3c
000000f0: b60f 713c f7a9 223c 4c13 8d3b da7e 36bd
00000100: 2cdc 7cbd b856 a9bc 4ac6 42bc bd7e dbbc
00000110: 6ec5 69bc 9437 52bc ee0a 9fbb 6d09 0c3d
00000120: 042d 0a3d 8754 cbba 78d2 f13b 630a c4bc
00000130: bea3 3f3d 5d76 99bc a245 2fbc efbf 2f3d
00000140: 95b9 2fbd 4d50 d639 6706 af3a bda9 313c
00000150: f5d1 abbd 092c 4b3c b23d f33a acee 55bd
00000160: 1b02 4bbd be64 073d ed04 493d bae4 453c
00000170: e348 d33b 9ece 1ebd c0f5 ba3c c32d c63c
00000180: ee90 47bc 3a91 06bd 1b8c 353d afd8 a83c
00000190: c200 69bd 7abc f93c 8c82 41bd b535 0ebd
000001a0: fb88 863c 5f1e 613d d30c a7bb 6ac3 3c3d
000001b0: c886 19bd 69d1 313d 8609 263d 74f2 5ebd
000001c0: a6dd 2abd b0d1 a4bb a148 f33b 07a0 91bd
000001d0: 2be0 06bd 76a0 4d3d 74a0 49bd d446 7abd
000001e0: 3294 6fbd 37ab 19bd d2ef 853c 05c8 a93c
000001f0: 8c00 87bb 7eeb 243d fb18 9c3c 95d5 84bd
00000200: de64 c8bc 5216 44bc 4e6b e23c 4825 193b
00000210: 6108 b2bc c2a3 8dbd 6a34 1abd 75b1 98bc
00000220: 2420 a9bc 4ca5 1abd 97e0 90bd 291f 413c
00000230: 0f23 0abc b1d3 253c 4cd8 68bd 6847 6dbd
00000240: b5ce 5abd 554a 65bc 0f34 6e3c 7279 2b3c
00000250: e5f0 5c3d 8271 61bc 3ed8 2a3d 294f debc
00000260: 8c59 ce3c 772d 27bd c71c 3f3d 8876 adbd
00000270: 51bf 0ebd 9485 95bc 0cc2 7ebb 6df6 18bc
00000280: b20b 103d 53bf fe3b 044f b0bb 28df 03bc
00000290: 7646 80bd a303 923d 7d64 333d d26d 1cbd
000002a0: cda5 683a 4213 b63b d536 493d 12e7 5a3d
000002b0: 8dcf 0f3d 69fb 51bd f105 5f3d 7724 3f3d
000002c0: e069 1a3d 17dd 0f3d 133d 953c 3cd1 84bd
000002d0: d277 173d c014 86bd 180b 71bd 20ac 28bd
000002e0: 7c5f 3f3b 5169 1b3d c409 84bc 8841 9fbd
000002f0: 5c45 afbc 494a 243c 8e85 00bd f222 3fbd
00000300: a2e6 70bd 0727 9c3c e794 4cbb a41e 93bc
00000310: 8efe d53b 7a5c a3bd 8319 8fbd 2acb bfbc
00000320: 0fb2 a6bc 3445 883d a567 cbbb 7f2f 36bc
00000330: ea7f a03b b2f2 943c 0299 0f3b 6a3f 39bd
00000340: 213b 533c cb99 233d 71be 52bd 670e 00bd
00000350: 74ab a53c dd53 b93c 4793 a53b 54c5 2c3d
00000360: 04b7 063d 886e d4bc 39c0 4a3d 0e52 4bbc
00000370: 6a12 d9bd 1849 c4bb 479c 9abd 0081 a23a
00000380: 618b babb 9aa8 633a 321d 6bbd 47ae d73c
00000390: e668 e93c c407 d83c 5d87 b93c 0aff 96bd
000003a0: 6fd3 663d a978 a2bc a1e9 c23d 7f5a 6b3c
000003b0: b431 863b 8765 273c 753e 54bc 1089 60bd
000003c0: 0b0c 55bd a974 0a3d 781a ddbb 64b4 c03c
000003d0: 6d18 f33c 86c0 63bc b299 efbd df6d b73c
000003e0: c5b9 9bbd e6bf 60bd 9ad1 3bbd 5b43 d4bc
000003f0: 8277 643d 20ba 2e3d abc9 84bd acb0 9b3c
-0.059118073 -0.025652211 0.0042744204 -0.02143754 -0.057832185 -0.034938164 -0.02857905 0.02647195
0.059545875 -0.06708202 0.0038300413 -0.10687697 0.0096707195 -0.0034803427 -0.05781644 -0.009271305
-0.04374198 0.037702855 0.07684028 -0.033347566 0.020943679 0.024039254 0.019336961 -0.005329328
-0.023834217 0.062983945 -0.06351359 -0.0474557 -0.015664058 -0.03180898 -0.06155727 0.039480098
-0.10253129 -0.0047007347 -0.03862042 -0.0011943438 -0.048045713 -0.0052151 0.030334963 -0.0070996406
0.03352627 -0.07219593 -0.015657658 0.039415542 0.034716763 -0.08037721 0.04663171 -0.011904751
-0.0588057 -0.036980513 0.011460711 -0.0038071421 -0.013263426 -0.044249907 0.05050751 0.013208602
-0.03338919 -0.06170981 0.003251523 0.031168826 0.014713218 0.009928218 0.004305279 -0.04455457
-0.06173341 -0.020671234 -0.011888096 -0.026793832 -0.014268262 -0.012830634 -0.004853598 0.034188677
0.033734336 -0.0015512862 0.007379826 -0.023930734 0.046787016 -0.018733198 -0.010697754 0.04290765
-0.042901594 0.0004087709 0.0013353348 0.010843691 -0.083896555 0.0124006355 0.0018557815 -0.05222957
-0.049562555 0.03305506 0.049076963 0.012078458 0.0064478978 -0.038771264 0.02282226 0.024191743
-0.01218055 -0.032853343 0.044323068 0.020611135 -0.05688549 0.03048538 -0.04724364 -0.034719188
0.01642274 0.054960605 -0.0050979643 0.0460848 -0.037482053 0.0434126 0.040536426 -0.05443044
-0.041715287 -0.0050298795 0.0074244295 -0.07110601 -0.032928627 0.050201856 -0.049225286 -0.061102703
-0.05849094 -0.0375168 0.016349707 0.02072526 -0.0041199382 0.040263645 0.01905488 -0.0648605
-0.02446216 -0.011968212 0.027639057 0.0023368169 -0.021732511 -0.06916 -0.037647642 -0.018639306
-0.020645209 -0.037755296 -0.07074087 0.011787214 -0.00843121 0.010121272 -0.0568469 -0.057929426
-0.053419787 -0.013994773 0.014538779 0.010465967 0.053940672 -0.0137599725 0.04171013 -0.027137356
0.025189184 -0.040814843 0.046658304 -0.08469874 -0.034850422 -0.018252172 -0.0038872985 -0.009336096
0.035167404 0.0077742725 -0.005380513 -0.00804881 -0.06263439 0.071296 0.043797005 -0.03819067
0.0008874804 0.005556495 0.049124558 0.053443022 0.035110045 -0.051265154 0.054449026 0.046665635
0.037698627 0.035122957 0.018217599 -0.06485221 0.036979504 -0.065469265 -0.05884847 -0.041179776
0.00292012 0.037942234 -0.016117938 -0.07776171 -0.021395378 0.010027477 -0.031377368 -0.046664186
-0.0588137 0.019061578 -0.0031216682 -0.017958947 0.0065305894 -0.07976623 -0.06987288 -0.023412306
-0.020348577 0.066538244 -0.0062074238 -0.011119722 0.004898061 0.018182132 0.0021911268 -0.045226492
0.012892515 0.03994159 -0.05145115 -0.031263735 0.020223357 0.022622997 0.005052957 0.042180374
0.03288938 -0.025931612 0.049499724 -0.0124097 -0.10599215 -0.0059901588 -0.07549339 0.0012398064
-0.005692885 0.00086844864 -0.05740089 0.02632822 0.028492402 0.02637089 0.022647554 -0.073728636
0.056353983 -0.019832926 0.095172174 0.014364838 0.0040952805 0.010217077 -0.012954344 -0.054818213
-0.05201344 0.033802662 -0.00674754 0.023523517 0.029674733 -0.013900882 -0.11699237 0.022391258
-0.07603792 -0.05487051 -0.04585419 -0.025911024 0.055778034 0.04265797 -0.064837776 0.019005142

linear2.bias f4 [3]
00000000: cfc1 3ebd d960 e43c b41d c93b
-0.04657155 0.027878212 0.006137574
